lightning_logs/version_3/checkpoints/epoch=5.ckpt (torch_old, 2768 bytes, 4 tensors)

fc1.weight f4 [5, 72]
00000000: 4b51 b1bb a3e2 fd3d 42a6 c6bd 27a0 b1bd
00000010: 2d1e eebc 3230 ec3d f0de 313c 6913 3f3e
00000020: 85f1 95b9 7477 ff3c 3a3a 55bd af6e bbbc
00000030: 0295 e6bd a576 8fbd 2b79 4ebd 900d 8f3b
00000040: c44d 733d 2bd2 903d d3ed 0cbd 52eb 41bd
00000050: 1c21 263d 4a2e e43d 3097 393c a39c b43d
00000060: dae1 453d 4850 4c3c d263 e73d d6e6 dfbd
00000070: 9b32 b7bd 3c6a f4bc de29 3cbd c4cd ea3d
00000080: 8287 1dbe 0836 5ebd 0def 41bd 443b 35be
00000090: 1ee4 8cbd c978 cf3d d128 1a3d d6f5 693d
000000a0: 6018 cb3b 4f7b 77bd 4c56 a33c 2e25 11be
000000b0: 2c7b 06bd 7042 e53b fde2 233e 965d 9cbc
000000c0: ea42 b13c f698 473e 9c55 8b3e 3504 103e
000000d0: 0e95 3f3d 6c6c 823c f7d3 a13d e11c 8ebd
000000e0: 3ce7 b33c 8620 bbbd 5c48 a7bd 435d 79bd
000000f0: be6a 5a3d 5221 423d 3df8 8ebd 26d5 113d
00000100: d97f 843d b0b5 73bc 642a 92bd 3cb2 df3c
00000110: c9bb 953d 4b64 9d3e 3195 c6bd da8d 3a3c
00000120: c179 3b3d 268e ca3d 4f08 d23d 01f7 d43d
00000130: 2403 a33c 83bf c4bd a836 2a3c 83a0 8ebd
00000140: cd89 e0bd 1d72 d63d 687f b43d 03e9 f1bd
00000150: e4b3 b43c 2a92 a3bc 1225 b7bc b4f7 5cbd
00000160: 8133 393d 36f5 8ebd 8e8a 343d 4ac3 723d
00000170: 89b3 ab3d 6af4 353d 060a efbd a491 9cbd
00000180: 50fe 663d 3411 ca3c ffbd bcbd b2fa 8abd
00000190: a478 e53d d1a1 a23d 307a 52bd 82ab f4bc
000001a0: 8223 ebbd c0d2 0abb 6ae6 b6bd 0051 bbbd
000001b0: e0c7 d4bb 9cf4 903c 10b0 45bd 9337 8f3d
000001c0: 60e0 92bd 8500 db3d 4367 a53d 9e53 cbbd
000001d0: 30e7 d5bc d7e1 d83b c146 a83c 78d0 a03c
000001e0: 8a3a 5d3d 5b79 7d3c 3888 6bbd d5c9 3c3d
000001f0: 0286 e7bd 1f0e 8fbd 74ad f1bc 7523 6bbd
00000200: f6de 28bd bbd2 c5bd ec5c cdbc 445e ce3c
00000210: ba3c 9dbd b02e c6bb f1c6 ac3d 887e 46bc
00000220: 20a7 563b 0893 26bc 2143 6c3c 3577 993d
00000230: 63a0 e43d 2293 ac3d 5bee e93d 48ac c7bb
00000240: 6ed1 d8bd 81d8 64bd bb57 a43d 0045 48ba
00000250: 1256 7abd 80aa c0bd 431a e3bd c634 d3bd
00000260: 8bd2 c7bc df5c 843d 2108 803d b0a3 e9bd
00000270: 358e 963d c855 bebd 4c4d ecbc a2ba 43bd
00000280: a69a bdbc 708e bdbc 6695 d8bd 40b2 d1bd
00000290: 2c12 97bc 80c3 c73a 8151 62bd eed6 353d
000002a0: c03c d9bd 304f 02bc b553 d33d 9ce5 44bd
000002b0: 06e9 d63d 76d1 2e3d 32d1 d9bd b052 973d
000002c0: e0cf 5ebc 1c7d 57bd 64d8 cd3d 1133 b6bd
000002d0: 3831 4f3c d821 cabc 8b5b ac3d 86bf 063d
000002e0: def2 673d ee79 2a3d bc29 e8bc 3667 febc
000002f0: d30e babd 6dc7 823d fb2a 653d d724 a53d
00000300: 6768 9dbd c03b ac3b 6c24 aabd ad63 abbd
00000310: 2ba4 8cbd 6ef7 243d 3ed4 8fbd 4081 28bb
00000320: d074 a23b ed95 9b3d bd72 b6bd 2cb2 a5bd
00000330: e025 8cbd 71ef a83d 3485 2dbd 6d95 cb3d
00000340: f68d 2e3d a87f 743c 9b36 eabb 58d9 bebc
00000350: 7842 723c c873 dcbc 0013 59ba a85d 763c
00000360: 8f0b bebd 4493 92bd 4fe5 c23d cbdf c3bd
00000370: b440 92bc 0770 d13d e441 143d 0bed 39bc
00000380: 776b d8bd c220 6f3d 75dc b7bd 2349 19bd
00000390: b8f5 21bd 2339 babc 5e98 07bc 2713 c73d
000003a0: 117f 303c 032f d83d dec9 853d 504c a0bd
000003b0: 0732 533d b0aa aebd 1d7e 76bd 76fa 0d3d
000003c0: bce1 773c 0b13 b53d f347 28bd 00d4 4539
000003d0: 4ff2 613d a06a e9bd 7b7f ae3d 39ba d0bd
000003e0: e042 1a3c f023 a4bc 3421 72bd 07d0 973c
000003f0: 9995 c73d a41b 0dbd 224b 8fbd 2887 32bd
-0.005411302 0.12396743 -0.0969968 -0.08673125 -0.029067123 0.1153263 0.010856375 0.18659748
-0.0002859944 0.03118489 -0.052057482 -0.022879926 -0.1125889 -0.070050515 -0.050408524 0.0043656304
0.059400335 0.07071336 -0.034406494 -0.04734356 0.04055892 0.111416414 0.01132755 0.088189386
0.048311092 0.012470312 0.11298336 -0.109327 -0.08945199 -0.029835813 -0.045938365 0.11465028
-0.15383723 -0.054250747 -0.047347117 -0.1769839 -0.068794474 0.1013046 0.03763658 0.057119213
0.006197974 -0.06042033 0.01993861 -0.14174339 -0.03283231 0.0069964454 0.16004558 -0.019087594
0.021638352 0.19491944 0.27213752 0.14064105 0.04677301 0.01592084 0.07901757 -0.06939102
0.021960847 -0.09137063 -0.08168098 -0.060879957 0.053324454 0.047395058 -0.069809414 0.035603665
0.064696975 -0.014874861 -0.071369916 0.027306668 0.07311208 0.3074058 -0.09696425 0.011386359
0.04577041 0.09890394 0.10255491 0.10398675 0.019898959 -0.096068405 0.010389008 -0.06964209
-0.109637834 0.10470984 0.08813363 -0.118120216 0.022058435 -0.019967157 -0.022356544 -0.053947166
0.045215134 -0.06980364 0.04407745 0.059268273 0.08383853 0.044422545 -0.11671834 -0.07644966
0.056394875 0.024666406 -0.092159264 -0.067860976 0.11204651 0.0794102 -0.05138606 -0.029866938
-0.11481382 -0.0021182746 -0.08930667 -0.09146309 -0.0064935535 0.017694764 -0.04826361 0.06993022
-0.071717024 0.106934585 0.08076336 -0.09928058 -0.026111215 0.006618719 0.02054155 0.019630656
0.054010905 0.015470828 -0.057502955 0.04609092 -0.11304857 -0.06985115 -0.029501654 -0.05740686
-0.041228257 -0.09659334 -0.025068723 0.025191434 -0.07677598 -0.006048046 0.084363826 -0.012115128
0.0032753423 -0.010166891 0.014420302 0.0749344 0.11163404 0.08426501 0.11422416 -0.0060935356
-0.105868205 -0.055870537 0.08024546 -0.00076396763 -0.06111724 -0.0940752 -0.110889934 -0.103128
-0.024392387 0.06463026 0.062515505 -0.11408174 0.073513426 -0.09293705 -0.028845452 -0.04778541
-0.023145031 -0.023139209 -0.105753705 -0.102390766 -0.018441282 0.0015240759 -0.05525351 0.044394426
-0.1060729 -0.00795345 0.103187 -0.048070535 0.104936644 0.042680226 -0.10635604 0.07388818
-0.013599366 -0.052609548 0.10051039 -0.08896459 0.012646012 -0.024674341 0.08415898 0.032897495
0.0566281 0.041620187 -0.028340213 -0.031055074 -0.09084859 0.06385694 0.055949192 0.08063667
-0.07685929 0.005256146 -0.08307728 -0.08368621 -0.0686725 0.04027503 -0.07022904 -0.0025711805
0.004957773 0.075969554 -0.08908603 -0.08090624 -0.068431616 0.08248795 -0.04236336 0.0994061
0.042615853 0.014923014 -0.0071476228 -0.023296997 0.014786355 -0.026910678 -0.0008280724 0.015036978
-0.092795484 -0.07156995 0.095163934 -0.095641695 -0.017853118 0.10226446 0.03619565 -0.011348019
-0.10567372 0.05838085 -0.08977596 -0.037423264 -0.039540976 -0.022732323 -0.008276073 0.0972045
0.0107724825 0.10555842 0.06532644 -0.078270555 0.05156138 -0.0852865 -0.060178865 0.034662686
0.015129503 0.08841523 -0.04108424 0.0001886636 0.055162724 -0.1139729 0.08520409 -0.10191769
0.009415358 -0.020036668 -0.059113696 0.018531812 0.0974533 -0.03445019 -0.06996752 -0.043585926

fc1.bias f4 [5]
00000000: 99c3 e4bb 6c68 f0bd 9faa cebd 902b 5c3d
00000010: a831 943c
-0.006981325 -0.11738667 -0.10091137 0.053752482 0.018090084

fc2.weight f4 [3, 5]
00000000: 6de6 0e3f 73c7 c13e 0586 cbbe f319 96be
00000010: 250c 8b3b 2320 b1be a3af 9d3e 2879 adbe
00000020: 6cb5 5fbe a7d8 e0be ae8c acbe 434b b33e
00000030: bbe1 ba3e 76e3 9d3e 5143 8d3e
0.5582035 0.3784748 -0.39750686 -0.29316673 0.004243391 -0.3459483 0.30798063 -0.33881497
-0.2184655 -0.43915293 -0.3370108 0.35018358 0.36500344 0.308376 0.2759042

fc2.bias f4 [3]
00000000: 5b2c 123f d064 d1bd 6103 373c
0.5709893 -0.102243066 0.011170239
