lightning_logs/version_1/checkpoints/epoch=10.ckpt (torch_old, 2768 bytes, 4 tensors)

fc1.weight f4 [5, 72]
-0.00088232756 0.06322048 -0.0969968 -0.09046092 -0.054588336 0.027411198 -0.015623316 0.093442924
-0.010458589 0.03118489 -0.035616152 -0.020346949 -0.09613856 -0.072944574 -0.04858096 0.011763087
0.03455317 0.07071336 -0.07989612 -0.051319785 0.042805545 0.09054551 -0.04868909 0.0765124
-0.02376919 0.0035446305 0.10898155 -0.109327 -0.07063415 -0.029835813 -0.05121296 0.10182347
-0.0763887 -0.054250747 -0.08233557 -0.11037477 -0.068794474 0.1013046 0.052587338 0.057119213
0.006197974 -0.06042033 0.01993861 -0.07793233 -0.08515525 -0.060755793 0.07435674 -0.012032978
0.028865201 0.04983572 0.07537296 0.020845775 0.04677301 0.01592084 0.07901757 -0.06939102
0.021960847 -0.09137063 -0.08168098 -0.060879957 0.053324454 0.047395058 -0.069809414 0.035603665
0.064696975 -0.014874861 -0.07663185 0.027306668 0.07311208 0.23825788 -0.09081886 -0.04318887
0.04631666 0.097645484 0.10255491 0.103547774 0.022136642 -0.10247851 0.009496688 -0.07372829
-0.10983185 0.10470984 0.08960926 -0.11752966 0.021774815 -0.020098394 -0.01939372 -0.052439295
0.045144957 -0.06980364 0.043203197 0.059598275 0.08436627 0.045622345 -0.11599022 -0.079139754
0.058685653 0.023919085 -0.090803124 -0.067860976 0.11125679 0.0794102 -0.05132564 -0.029661335
-0.11226476 -0.0021182746 -0.08874884 -0.090905264 -0.0064935535 0.017694764 -0.04826361 0.06993022
-0.071717024 0.106934585 0.08076336 -0.09007493 -0.029331297 0.005317755 0.017194606 0.021100657
0.053098723 0.03451116 -0.057502955 0.035214037 -0.11304857 -0.06985115 -0.029501654 -0.05740686
-0.041228257 -0.09659334 -0.025068723 0.025191434 -0.07677598 -0.006048046 0.084363826 -0.012115128
0.0032753423 -0.010166891 0.017000275 0.0749344 0.11163404 0.07879091 0.12166655 -0.0085231885
-0.105868205 -0.055870537 0.08024546 -0.0016423549 -0.058577474 -0.09155561 -0.112468354 -0.09946732
-0.02390454 0.06463026 0.06371517 -0.11376467 0.07060529 -0.092677936 -0.024914943 -0.04831109
-0.02269993 -0.023139209 -0.105753705 -0.10175713 -0.018441282 -0.00012760761 -0.05353681 0.0426454
-0.10711923 -0.008696374 0.10164495 -0.048070535 0.10541504 0.042680226 -0.1075353 0.07456409
-0.013599366 -0.052609548 0.088720806 -0.09523493 0.012646012 -0.024674341 0.08415898 0.032897495
0.0566281 0.041620187 -0.028340213 -0.024784736 -0.10263817 0.06385694 0.09357122 0.07511743
-0.07761039 -0.016820809 -0.08307728 -0.064875185 -0.0686725 0.04027503 -0.07022904 -0.0025711805
0.004957773 0.075969554 -0.08908603 -0.08090624 -0.068431616 0.08248795 -0.04236336 0.0994061
0.042615853 0.014923014 -0.0063965223 -0.023296997 0.014786355 -0.026910678 -0.0008280724 0.015036978
-0.092183754 -0.06176948 0.095163934 -0.10188182 -0.01775088 0.11009818 0.034590896 0.0033367202
-0.102130964 0.05838085 -0.08394309 -0.03424078 -0.050958965 -0.022697082 0.001289092 0.092118755
0.012226791 0.10555842 0.072091006 -0.07450713 0.05285672 -0.084167875 -0.054577075 0.02656196
0.032119356 0.07962207 -0.041954827 0.0001886636 0.05713694 -0.1139729 0.07956027 -0.09745374
0.0016242862 -0.020036668 -0.062069003 0.015576504 0.0974533 -0.03445019 -0.06996752 -0.043585926
00000000: 004c 67ba bd79 813d 42a6 c6bd 9343 b9bd
00000010: 0598 5fbd 738d e03c f0f8 7fbc 015f bf3d
00000020: 805a 2bbc 7477 ff3c 3ee2 11bd a5ae a6bc
00000030: 4be4 c4bd f763 95bd d4fc 46bd f6b9 403c
00000040: a087 0d3d 2bd2 903d 94a0 a3bd b234 52bd
00000050: de54 2f3d ed6f b93d 366e 47bd 88b2 9c3d
00000060: 9bb7 c2bc 084d 683b b831 df3d d6e6 dfbd
00000070: a3a8 90bd 3c6a f4bc aec4 51bd d388 d03d
00000080: ae71 9cbd 0836 5ebd 8d9f a8bd 2b0c e2bd
00000090: 1ee4 8cbd c978 cf3d d265 573d d6f5 693d
000000a0: 6018 cb3b 4f7b 77bd 4c56 a33c fc9a 9fbd
000000b0: e065 aebd 11db 78bd 5948 983d f825 45bc
000000c0: b776 ec3c 8a20 4c3d 235d 9a3d c2c4 aa3c
000000d0: 0e95 3f3d 6c6c 823c f7d3 a13d e11c 8ebd
000000e0: 3ce7 b33c 8620 bbbd 5c48 a7bd 435d 79bd
000000f0: be6a 5a3d 5221 423d 3df8 8ebd 26d5 113d
00000100: d97f 843d b0b5 73bc 29f1 9cbd 3cb2 df3c
00000110: c9bb 953d e0f9 733e 3dff b9bd d0e6 30bd
00000120: 8ab6 3d3d 5bfa c73d 4f08 d23d db10 d43d
00000130: e757 b53c 41e0 d1bd ff97 1b3c dcfe 96bd
00000140: 85ef e0bd 1d72 d63d 0f85 b73d 64b3 f0bd
00000150: 1961 b23c 63a5 a4bc 94df 9ebc 96ca 56bd
00000160: ebe9 383d 36f5 8ebd d6f5 303d 521d 743d
00000170: 39c8 ac3d 7fde 3a3d 488c edbd 0614 a2bd
00000180: 5e60 703d f5f1 c33c fdf6 b9bd b2fa 8abd
00000190: 9ada e33d d1a1 a23d d63a 52bd 54fc f2bc
000001a0: 11eb e5bd c0d2 0abb f4c1 b5bd 8a2c babd
000001b0: e0c7 d4bb 9cf4 903c 10b0 45bd 9337 8f3d
000001c0: 60e0 92bd 8500 db3d 4367 a53d 3479 b8bd
000001d0: 3048 f0bc 9040 ae3b b4db 8c3c 49db ac3c
000001e0: 0c7e 593d 935b 0d3d 3888 6bbd 983c 103d
000001f0: 0286 e7bd 1f0e 8fbd 74ad f1bc 7523 6bbd
00000200: f6de 28bd bbd2 c5bd ec5c cdbc 445e ce3c
00000210: ba3c 9dbd b02e c6bb f1c6 ac3d 887e 46bc
00000220: 20a7 563b 0893 26bc 2944 8b3c 3577 993d
00000230: 63a0 e43d 215d a13d 502c f93d d8a4 0bbc
00000240: 6ed1 d8bd 81d8 64bd bb57 a43d 4944 d7ba
00000250: efee 6fbd 8281 bbbd cf55 e6bd 86b5 cbbd
00000260: 74d3 c3bc df5c 843d 197d 823d 74fd e8bd
00000270: 8299 903d eecd bdbd 6c1a ccbc d9e1 45bd
00000280: 34f5 b9bc 708e bdbc 6695 d8bd 0b66 d0bd
00000290: 2c12 97bc 68ce 05b9 6a49 5bbd f1ac 2e3d
000002a0: 5461 dbbd 3c7b 0ebc 3a2b d03d 9ce5 44bd
000002b0: d7e3 d73d 76d1 2e3d 783b dcbd 0fb5 983d
000002c0: e0cf 5ebc 1c7d 57bd 41b3 b53d 880a c3bd
000002d0: 3831 4f3c d821 cabc 8b5b ac3d 86bf 063d
000002e0: def2 673d ee79 2a3d bc29 e8bc 5c09 cbbc
000002f0: f633 d2bd 6dc7 823d 45a2 bf3d 2bd7 993d
00000300: 32f2 9ebd cbcb 89bc 6c24 aabd 48dd 84bd
00000310: 2ba4 8cbd 6ef7 243d 3ed4 8fbd 4081 28bb
00000320: d074 a23b ed95 9b3d bd72 b6bd 2cb2 a5bd
00000330: e025 8cbd 71ef a83d 3485 2dbd 6d95 cb3d
00000340: f68d 2e3d a87f 743c eb99 d1bb 58d9 bebc
00000350: 7842 723c c873 dcbc 0013 59ba a85d 763c
00000360: d6ca bcbd ff01 7dbd 4fe5 c23d 6aa7 d0bd
00000370: 4b6a 91bc 287b e13d 2faf 0d3d e0ac 5a3b
00000380: 0a2a d1bd c220 6f3d 5bea abbd 0f40 0cbd
00000390: 59ba 50bd 3bef b9bc c0f6 a83a c2a8 bc3d
000003a0: e152 483c 032f d83d 73a4 933d 3297 98bd
000003b0: 4a80 583d 3560 acbd 368c 5fbd 7898 d93c
000003c0: 968f 033d e510 a33d d3d8 2bbd 00d4 4539
000003d0: 6d08 6a3d a06a e9bd 7ff0 a23d d495 c7bd
000003e0: 00e6 d43a f023 a4bc 113c 7ebd 9834 7f3c
000003f0: 9995 c73d a41b 0dbd 224b 8fbd 2887 32bd

fc1.bias f4 [5]
-0.09831973 -0.11625221 -0.10016027 0.064290166 0.016024463
00000000: db5b c9bd a415 eebd d420 cdbd 90aa 833d
00000010: bc45 833c

fc2.weight f4 [3, 5]
0.43319798 0.37585095 -0.3986257 -0.31383294 -0.046548974 -0.27991793 0.31099406 -0.33833745
-0.19975084 -0.4261881 -0.27803573 0.34979394 0.36564475 0.31032753 0.31373176
00000000: 20cc dd3e 896f c03e ab18 ccbe b6ae a0be
00000010: 23aa 3ebd 6751 8fbe 9d3a 9f3e 913a adbe
00000020: 7c8b 4cbe 5435 dabe b35a 8ebe 3118 b33e
00000030: ca35 bb3e 40e3 9e3e 73a1 a03e

fc2.bias f4 [3]
0.6185799 -0.014052768 -0.124610886
00000000: 415b 1e3f 953d 66bc fe33 ffbd
